…
fied\n","File ‘data/vehicle-detector/yolo-voc.weights’ not modified on server. Omitting download.\n","\n","--2019-08-21 11:46:27--  http://www.inf.ufrgs.br/~smsilva/alpr-unconstrained/data/vehicle-detector/voc.names\n","Resolving www.inf.ufrgs.br (www.inf.ufrgs.br)... 143.54.11.34\n","Connecting to www.inf.ufrgs.br (www.inf.ufrgs.br)|143.54.11.34|:80... connected.\n","HTTP request sent, awaiting response... 304 Not Modified\n","File ‘data/vehicle-detector/voc.names’ not modified on server. Omitting download.\n","\n","layer     filters    size              input                output\n","    0 conv     32  3 x 3 / 1   416 x 416 x   3   ->   416 x 416 x  32  0.299 BFLOPs\n","    1 max          2 x 2 / 2   416 x 416 x  32   ->   208 x 208 x  32\n","    2 conv     64  3 x 3 / 1   208 x 208 x  32   ->   208 x 208 x  64  1.595 BFLOPs\n","    3 max          2 x 2 / 2   208 x 208 x  64   ->   104 x 104 x  64\n","    4 conv    128  3 x 3 / 1   104 x 104 x  64   ->   104 x 104 x 128  1.595 BFLOPs\n","    5 conv     64  1 x 1 / 1   104 x 104 x 128   ->   104 x 104 x  64  0.177 BFLOPs\n","    6 conv    128  3 x 3 / 1   104 x 104 x  64   ->   104 x 104 x 128  1.595 BFLOPs\n","    7 max          2 x 2 / 2   104 x 104 x 128   ->    52 x  52 x 128\n","    8 conv    256  3 x 3 / 1    52 x  52 x 128   ->    52 x  52 x 256  1.595 BFLOPs\n","    9 conv    128  1 x 1 / 1    52 x  52 x 256   ->    52 x  52 x 128  0.177 BFLOPs\n","   10 conv    256  3 x 3 / 1    52 x  52 x 128   ->    52 x  52 x 256  1.595 BFLOPs\n","   11 max          2 x 2 / 2    52 x  52 x 256   ->    26 x  26 x 256\n","   12 conv    512  3 x 3 / 1    26 x  26 x 256   ->    26 x  26 x 512  1.595 BFLOPs\n","   13 conv    256  1 x 1 / 1    26 x  26 x 512   ->    26 x  26 x 256  0.177 BFLOPs\n","   14 conv    512  3 x 3 / 1    26 x  26 x 256   ->    26 x  26 x 512  1.595 BFLOPs\n","   15 conv    256  1 x 1 / 1    26 x  26 x 512   ->    26 x  26 x 256  0.177 BFLOPs\n","   16 conv    512  3 x 3 / 1    26 x  26 x 256   ->    26 x  26 x 512  1.595 BFLOPs\n","   17 max          2 x 2 / 2    26 x  26 x 512   ->    13 x  13 x 512\n","   18 conv   1024  3 x 3 / 1    13 x  13 x 512   ->    13 x  13 x1024  1.595 BFLOPs\n","   19 conv    512  1 x 1 / 1    13 x  13 x1024   ->    13 x  13 x 512  0.177 BFLOPs\n","   20 conv   1024  3 x 3 / 1    13 x  13 x 512   ->    13 x  13 x1024  1.595 BFLOPs\n","   21 conv    512  1 x 1 / 1    13 x  13 x1024   ->    13 x  13 x 512  0.177 BFLOPs\n","   22 conv   1024  3 x 3 / 1    13 x  13 x 512   ->    13 x  13 x1024  1.595 BFLOPs\n","   23 conv   1024  3 x 3 / 1    13 x  13 x1024   ->    13 x  13 x1024  3.190 BFLOPs\n","   24 conv   1024  3 x 3 / 1    13 x  13 x1024   ->    13 x  13 x1024  3.190 BFLOPs\n","   25 route  16\n","   26 conv     64  1 x 1 / 1    26 x  26 x 512   ->    26 x  26 x  64  0.044 BFLOPs\n","   27 reorg              / 2    26 x  26 x  64   ->    13 x  13 x 256\n","   28 route  27 24\n","   29 conv   1024  3 x 3 / 1    13 x  13 x1280   ->    13 x  13 x1024  3.987 BFLOPs\n","   30 conv    125  1 x 1 / 1    13 x  13 x1024   ->    13 x  13 x 125  0.043 BFLOPs\n","   31 detection\n","mask_scale: Using default '1.000000'\n","Loading weights from data/vehicle-detector/yolo-voc.weights...Done!\n","Searching for vehicles using YOLO...\n","\tScanning ../jpg_primary_car_plates/0b86cecf-67d1-4fc0-87c9-b36b0ee228bb.jpg\n","\t\t1 cars found\n","\tScanning ../jpg_primary_car_plates/12c6cb72-3ea3-49e7-b381-e0
…
pr/test_039_1car.png\n","\t\tBound dim: 608, ratio: 2.972222\n","\t Processing ../output_alpr/wts-lg-000023_0car.png\n","\t\tBound dim: 490, ratio: 1.687151\n","\t Processing ../output_alpr/test_096_0car.png\n","\t\tBound dim: 448, ratio: 1.528481\n","\t Processing ../output_alpr/NZF7823_1car.png\n","\t\tBound dim: 476, ratio: 1.635036\n","\t Processing ../output_alpr/PWF3266_1car.png\n","\t\tBound dim: 518, ratio: 1.788779\n","\t Processing ../output_alpr/test_070_0car.png\n","\t\tBound dim: 382, ratio: 1.305019\n","layer     filters    size              input                output\n","    0 conv     32  3 x 3 / 1   240 x  80 x   3   ->   240 x  80 x  32  0.033 BFLOPs\n","    1 max          2 x 2 / 2   240 x  80 x  32   ->   120 x  40 x  32\n","    2 conv     64  3 x 3 / 1   120 x  40 x  32   ->   120 x  40 x  64  0.177 BFLOPs\n","    3 max          2 x 2 / 2   120 x  40 x  64   ->    60 x  20 x  64\n","    4 conv    128  3 x 3 / 1    60 x  20 x  64   ->    60 x  20 x 128  0.177 BFLOPs\n","    5 conv     64  1 x 1 / 1    60 x  20 x 128   ->    60 x  20 x  64  0.020 BFLOPs\n","    6 conv    128  3 x 3 / 1    60 x  20 x  64   ->    60 x  20 x 128  0.177 BFLOPs\n","    7 max          2 x 2 / 2    60 x  20 x 128   ->    30 x  10 x 128\n","    8 conv    256  3 x 3 / 1    30 x  10 x 128   ->    30 x  10 x 256  0.177 BFLOPs\n","    9 conv    128  1 x 1 / 1    30 x  10 x 256   ->    30 x  10 x 128  0.020 BFLOPs\n","   10 conv    256  3 x 3 / 1    30 x  10 x 128   ->    30 x  10 x 256  0.177 BFLOPs\n","   11 conv    512  3 x 3 / 1    30 x  10 x 256   ->    30 x  10 x 512  0.708 BFLOPs\n","   12 conv    256  3 x 3 / 1    30 x  10 x 512   ->    30 x  10 x 256  0.708 BFLOPs\n","   13 conv    512  3 x 3 / 1    30 x  10 x 256   ->    30 x  10 x 512  0.708 BFLOPs\n","   14 conv     80  1 x 1 / 1    30 x  10 x 512   ->    30 x  10 x  80  0.025 BFLOPs\n","   15 detection\n","mask_scale: Using default '1.000000'\n","Loading weights from data/ocr/ocr-net.weights...Done!\n","Performing OCR...\n","\tScanning ../output_alpr/0b86cecf-67d1-4fc0-87c9-b36b0ee228bb_0car_lp.png\n","\t\tLP: YG9X2G\n","\tScanning ../output_alpr/12c6cb72-3ea3-49e7-b381-e0cdfc5e8960_0car_lp.png\n","\t\tLP: 142016\n","\tS
…
